models/final/0821/vae_losselbo_ns1_es1.000000_r0.pt (torch, 945608 bytes, 118 tensors)

decoder_scale_qua f8 [128, 3]
000000 00 00 00 00 00 00 59 40 00 00 00 00 00 00 59 40
       100.0 100.0
000010 00 00 00 00 00 00 59 40 00 00 00 00 00 00 59 40
       100.0 100.0
000020 00 00 00 00 00 00 59 40 00 00 00 00 00 00 59 40
       100.0 100.0
000030 00 00 00 00 00 00 59 40 00 00 00 00 00 00 59 40
       100.0 100.0
000040 00 00 00 00 00 00 59 40 00 00 00 00 00 00 59 40
       100.0 100.0
000050 00 00 00 00 00 00 59 40 00 00 00 00 00 00 59 40
       100.0 100.0
000060 00 00 00 00 00 00 59 40 00 00 00 00 00 00 59 40
       100.0 100.0
000070 00 00 00 00 00 00 59 40 00 00 00 00 00 00 59 40
       100.0 100.0
000080 00 00 00 00 00 00 59 40 00 00 00 00 00 00 59 40
       100.0 100.0
000090 00 00 00 00 00 00 59 40 00 00 00 00 00 00 59 40
       100.0 100.0
0000a0 00 00 00 00 00 00 59 40 00 00 00 00 00 00 59 40
       100.0 100.0
0000b0 00 00 00 00 00 00 59 40 00 00 00 00 00 00 59 40
       100.0 100.0
0000c0 00 00 00 00 00 00 59 40 00 00 00 00 00 00 59 40
       100.0 100.0
0000d0 00 00 00 00 00 00 59 40 00 00 00 00 00 00 59 40
       100.0 100.0
0000e0 00 00 00 00 00 00 59 40 00 00 00 00 00 00 59 40
       100.0 100.0
0000f0 00 00 00 00 00 00 59 40 00 00 00 00 00 00 59 40
       100.0 100.0
000100 00 00 00 00 00 00 59 40 00 00 00 00 00 00 59 40
       100.0 100.0
000110 00 00 00 00 00 00 59 40 00 00 00 00 00 00 59 40
       100.0 100.0
000120 00 00 00 00 00 00 59 40 00 00 00 00 00 00 59 40
       100.0 100.0
000130 00 00 00 00 00 00 59 40 00 00 00 00 00 00 59 40
       100.0 100.0
000140 00 00 00 00 00 00 59 40 00 00 00 00 00 00 59 40
       100.0 100.0
000150 00 00 00 00 00 00 59 40 00 00 00 00 00 00 59 40
       100.0 100.0
000160 00 00 00 00 00 00 59 40 00 00 00 00 00 00 59 40
       100.0 100.0
000170 00 00 00 00 00 00 59 40 00 00 00 00 00 00 59 40
       100.0 100.0
000180 00 00 00 00 00 00 59 40 00 00 00 00 00 00 59 40
       100.0 100.0
000190 00 00 00 00 00 00 59 40 00 00 00 00 00 00 59 40
       100.0 100.0
0001a0 00 00 00 00 00 00 59 40 00 00 00 00 00 00 59 40
       100.0 100.0
0001b0 00 00 00 00 00 00 59 40 00 00 00 00 00 00 59 40
       100.0 100.0
0001c0 00 00 00 00 00 00 59 40 00 00 00 00 00 00 59 40
       100.0 100.0
0001d0 00 00 00 00 00 00 59 40 00 00 00 00 00 00 59 40
       100.0 100.0
0001e0 00 00 00 00 00 00 59 40 00 00 00 00 00 00 59 40
       100.0 100.0
0001f0 00 00 00 00 00 00 59 40 00 00 00 00 00 00 59 40
       100.0 100.0
000200 00 00 00 00 00 00 59 40 00 00 00 00 00 00 59 40
       100.0 100.0
000210 00 00 00 00 00 00 59 40 00 00 00 00 00 00 59 40
       100.0 100.0
000220 00 00 00 00 00 00 59 40 00 00 00 00 00 00 59 40
       100.0 100.0
000230 00 00 00 00 00 00 59 40 00 00 00 00 00 00 59 40
       100.0 100.0
000240 00 00 00 00 00 00 59 40 00 00 00 00 00 00 59 40
       100.0 100.0
000250 00 00 00 00 00 00 59 40 00 00 00 00 00 00 59 40
       100.0 100.0
000260 00 00 00 00 00 00 59 40 00 00 00 00 00 00 59 40
       100.0 100.0
000270 00 00 00 00 00 00 59 40 00 00 00 00 00 00 59 40
       100.0 100.0
000280 00 00 00 00 00 00 59 40 00 00 00 00 00 00 59 40
       100.0 100.0
000290 00 00 00 00 00 00 59 40 00 00 00 00 00 00 59 40
       100.0 100.0
0002a0 00 00 00 00 00 00 59 40 00 00 00 00 00 00 59 40
       100.0 100.0
0002b0 00 00 00 00 00 00 59 40 00 00 00 00 00 00 59 40
       100.0 100.0
0002c0 00 00 00 00 00 00 59 40 00 00 00 00 00 00 59 40
       100.0 100.0
0002d0 00 00 00 00 00 00 59 40 00 00 00 00 00 00 59 40
       100.0 100.0
0002e0 00 00 00 00 00 00 59 40 00 00 00 00 00 00 59 40
       100.0 100.0
0002f0 00 00 00 00 00 00 59 40 00 00 00 00 00 00 59 40
       100.0 100.0
000300 00 00 00 00 00 00 59 40 00 00 00 00 00 00 59 40
       100.0 100.0
000310 00 00 00 00 00 00 59 40 00 00 00 00 00 00 59 40
       100.0 100.0
000320 00 00 00 00 00 00 59 40 00 00 00 00 00 00 59 40
       100.0 100.0
000330 00 00 00 00 00 00 59 40 00 00 00 00 00 00 59 40
       100.0 100.0
000340 00 00 00 00 00 00 59 40 00 00 00 00 00 00 59 40
       100.0 100.0
000350 00 00 00 00 00 00 59 40 00 00 00 00 00 00 59 40
       100.0 100.0
000360 00 00 00 00 00 00 59 40 00 00 00 00 00 00 59 40
       100.0 100.0
000370 00 00 00 00 00 00 59 40 00 00 00 00 00 00 59 40
       100.0 100.0
000380 00 00 00 00 00 00 59 40 00 00 00 00 00 00 59 40
       100.0 100.0
000390 00 00 00 00 00 00 59 40 00 00 00 00 00 00 59 40
       100.0 100.0
0003a0 00 00 00 00 00 00 59 40 00 00 00 00 00 00 59 40
       100.0 100.0
0003b0 00 00 00 00 00 00 59 40 00 00 00 00 00 00 59 40
       100.0 100.0
0003c0 00 00 00 00 00 00 59 40 00 00 00 00 00 00 59 40
       100.0 100.0
0003d0 00 00 00 00 00 00 59 40 00 00 00 00 00 00 59 40
       100.0 100.0
0003e0 00 00 00 00 00 00 59 40 00 00 00 00 00 00 59 40
       100.0 100.0
0003f0 00 00 00 00 00 00 59 40 00 00 00 00 00 00 59 40
       100.0 100.0
000400 00 00 00 00 00 00 59 40 00 00 00 00 00 00 59 40
       100.0 100.0
000410 00 00 00 00 00 00 59 40 00 00 00 00 00 00 59 40
       100.0 100.0
000420 00 00 00 00 00 00 59 40 00 00 00 00 00 00 59 40
       100.0 100.0
000430 00 00 00 00 00 00 59 40 00 00 00 00 00 00 59 40
       100.0 100.0
000440 00 00 00 00 00 00 59 40 00 00 00 00 00 00 59 40
       100.0 100.0
000450 00 00 00 00 00 00 59 40 00 00 00 00 00 00 59 40
       100.0 100.0
000460 00 00 00 00 00 00 59 40 00 00 00 00 00 00 59 40
       100.0 100.0
000470 00 00 00 00 00 00 59 40 00 00 00 00 00 00 59 40
       100.0 100.0
000480 00 00 00 00 00 00 59 40 00 00 00 00 00 00 59 40
       100.0 100.0
000490 00 00 00 00 00 00 59 40 00 00 00 00 00 00 59 40
       100.0 100.0
0004a0 00 00 00 00 00 00 59 40 00 00 00 00 00 00 59 40
       100.0 100.0
0004b0 00 00 00 00 00 00 59 40 00 00 00 00 00 00 59 40
       100.0 100.0
0004c0 00 00 00 00 00 00 59 40 00 00 00 00 00 00 59 40
       100.0 100.0
0004d0 00 00 00 00 00 00 59 40 00 00 00 00 00 00 59 40
       100.0 100.0
0004e0 00 00 00 00 00 00 59 40 00 00 00 00 00 00 59 40
       100.0 100.0
0004f0 00 00 00 00 00 00 59 40 00 00 00 00 00 00 59 40
       100.0 100.0
000500 00 00 00 00 00 00 59 40 00 00 00 00 00 00 59 40
       100.0 100.0
000510 00 00 00 00 00 00 59 40 00 00 00 00 00 00 59 40
       100.0 100.0
000520 00 00 00 00 00 00 59 40 00 00 00 00 00 00 59 40
       100.0 100.0
000530 00 00 00 00 00 00 59 40 00 00 00 00 00 00 59 40
       100.0 100.0
000540 00 00 00 00 00 00 59 40 00 00 00 00 00 00 59 40
       100.0 100.0
000550 00 00 00 00 00 00 59 40 00 00 00 00 00 00 59 40
       100.0 100.0
000560 00 00 00 00 00 00 59 40 00 00 00 00 00 00 59 40
       100.0 100.0
000570 00 00 00 00 00 00 59 40 00 00 00 00 00 00 59 40
       100.0 100.0
000580 00 00 00 00 00 00 59 40 00 00 00 00 00 00 59 40
       100.0 100.0
000590 00 00 00 00 00 00 59 40 00 00 00 00 00 00 59 40
       100.0 100.0
0005a0 00 00 00 00 00 00 59 40 00 00 00 00 00 00 59 40
       100.0 100.0
0005b0 00 00 00 00 00 00 59 40 00 00 00 00 00 00 59 40
       100.0 100.0
0005c0 00 00 00 00 00 00 59 40 00 00 00 00 00 00 59 40
       100.0 100.0
0005d0 00 00 00 00 00 00 59 40 00 00 00 00 00 00 59 40
       100.0 100.0
0005e0 00 00 00 00 00 00 59 40 00 00 00 00 00 00 59 40
       100.0 100.0
0005f0 00 00 00 00 00 00 59 40 00 00 00 00 00 00 59 40
       100.0 100.0
000600 00 00 00 00 00 00 59 40 00 00 00 00 00 00 59 40
       100.0 100.0
000610 00 00 00 00 00 00 59 40 00 00 00 00 00 00 59 40
       100.0 100.0
000620 00 00 00 00 00 00 59 40 00 00 00 00 00 00 59 40
       100.0 100.0
000630 00 00 00 00 00 00 59 40 00 00 00 00 00 00 59 40
       100.0 100.0
000640 00 00 00 00 00 00 59 40 00 00 00 00 00 00 59 40
       100.0 100.0
000650 00 00 00 00 00 00 59 40 00 00 00 00 00 00 59 40
       100.0 100.0
000660 00 00 00 00 00 00 59 40 00 00 00 00 00 00 59 40
       100.0 100.0
000670 00 00 00 00 00 00 59 40 00 00 00 00 00 00 59 40
       100.0 100.0
000680 00 00 00 00 00 00 59 40 00 00 00 00 00 00 59 40
       100.0 100.0
000690 00 00 00 00 00 00 59 40 00 00 00 00 00 00 59 40
       100.0 100.0
0006a0 00 00 00 00 00 00 59 40 00 00 00 00 00 00 59 40
       100.0 100.0
0006b0 00 00 00 00 00 00 59 40 00 00 00 00 00 00 59 40
       100.0 100.0
0006c0 00 00 00 00 00 00 59 40 00 00 00 00 00 00 59 40
       100.0 100.0
0006d0 00 00 00 00 00 00 59 40 00 00 00 00 00 00 59 40
       100.0 100.0
0006e0 00 00 00 00 00 00 59 40 00 00 00 00 00 00 59 40
       100.0 100.0
0006f0 00 00 00 00 00 00 59 40 00 00 00 00 00 00 59 40
       100.0 100.0
000700 00 00 00 00 00 00 59 40 00 00 00 00 00 00 59 40
       100.0 100.0
000710 00 00 00 00 00 00 59 40 00 00 00 00 00 00 59 40
       100.0 100.0
000720 00 00 00 00 00 00 59 40 00 00 00 00 00 00 59 40
       100.0 100.0
000730 00 00 00 00 00 00 59 40 00 00 00 00 00 00 59 40
       100.0 100.0
000740 00 00 00 00 00 00 59 40 00 00 00 00 00 00 59 40
       100.0 100.0
000750 00 00 00 00 00 00 59 40 00 00 00 00 00 00 59 40
       100.0 100.0
000760 00 00 00 00 00 00 59 40 00 00 00 00 00 00 59 40
       100.0 100.0
000770 00 00 00 00 00 00 59 40 00 00 00 00 00 00 59 40
       100.0 100.0
000780 00 00 00 00 00 00 59 40 00 00 00 00 00 00 59 40
       100.0 100.0
000790 00 00 00 00 00 00 59 40 00 00 00 00 00 00 59 40
       100.0 100.0
0007a0 00 00 00 00 00 00 59 40 00 00 00 00 00 00 59 40
       100.0 100.0
0007b0 00 00 00 00 00 00 59 40 00 00 00 00 00 00 59 40
       100.0 100.0
0007c0 00 00 00 00 00 00 59 40 00 00 00 00 00 00 59 40
       100.0 100.0
0007d0 00 00 00 00 00 00 59 40 00 00 00 00 00 00 59 40
       100.0 100.0
0007e0 00 00 00 00 00 00 59 40 00 00 00 00 00 00 59 40
       100.0 100.0
0007f0 00 00 00 00 00 00 59 40 00 00 00 00 00 00 59 40
       100.0 100.0

prior_loc f4 [2]
000000 00 00 00 00 00 00 00 00
       0.0 0.0

prior_scale f4 [2]
000000 00 00 80 3f 00 00 80 3f
       1.0 1.0

encoder_loc.0.weight f4 [5]
000000 7b 83 9f 3f d1 2a a5 3f 71 3c 0b 3f 81 19 49 3f
       1.2462 1.2903692 0.543891 0.7855454
000010 4e 3e 25 3f
       0.64548194

encoder_loc.0.bias f4 [5]
000000 e9 32 9f bb 67 ae 85 bd 78 f0 95 3d 46 70 0b 3e
       -0.004858364 -0.06527405 0.073212564 0.13617048
000010 c6 f9 26 3d
       0.040765546

encoder_loc.0.running_mean f4 [5]
000000 f3 84 d4 3f e7 6e 25 c0 da 25 5e bb 7e 4b e8 3b
       1.6603073 -2.584894 -0.0033897073 0.0070890775
000010 94 3c 70 bb
       -0.00366572

encoder_loc.0.running_var f4 [5]
000000 ae ba 91 41 3b 43 00 42 89 9e a5 3d f4 56 54 3f
       18.216152 32.065655 0.08086879 0.8294518
000010 ca ab bb 3d
       0.091636255

encoder_loc.1._F.0.weight f4 [200, 5]
000000 af 12 a2 3d 51 2f cc bd 7b ae 5f 3e d4 65 dd be
       0.0791372 -0.099699624 0.21843903 -0.4324175
000010 5b f4 8d be 80 25 13 bf 63 ef 4b 3e 1e 84 27 3e
       -0.2772549 -0.57479095 0.19915538 0.16358992
000020 13 f0 36 be 17 de 35 3b bc 96 24 3f 43 8b 32 3e
       -0.17865019 0.0027750784 0.642925 0.17435937
000030 cd 49 28 be 83 a6 13 3d c2 cf 2d 3e 90 e8 a7 be
       -0.16434403 0.03604747 0.16973785 -0.3279462
000040 34 52 da 3e 5e fd 37 3e 78 05 a1 bd 91 8d b7 3d
       0.4264084 0.17967746 -0.07862371 0.089625485
000050 23 1c 00 3d 9d ee 04 3d 7c aa 07 3f e9 08 a5 3e
       0.031276833 0.03245412 0.52994514 0.3223336
000060 18 ea 85 be 6c e1 8a be f9 7e 15 3f 0e d7 a4 be
       -0.26155162 -0.27125108 0.5839687 -0.32195324
000070 e8 da 3c 3d f4 18 ba be 11 10 c3 be 19 68 8c 3e
       0.046107203 -0.36347163 -0.38098195 0.2742317
000080 47 8e ff bc 4b 62 e7 be 37 bf 0c 3f 15 36 f1 3d
       -0.031195773 -0.4519218 0.5497927 0.117778935
000090 8f 0c a3 be ef 73 42 be b5 04 ce be 56 ee 68 3e
       -0.3184552 -0.18989538 -0.40237966 0.22747168
0000a0 d0 d9 8b 3e 47 81 9a 3d 73 a8 da bc ba 33 2d 3e
       0.27314615 0.07544189 -0.026691651 0.16914263
0000b0 43 33 6f be f9 02 d7 3e a9 6a b2 3d 0d c2 f1 3d
       -0.23359399 0.41994455 0.0871175 0.118045904
0000c0 ef 53 12 be 40 1b 6b bd fe d5 c7 3e d3 dc a2 bd
       -0.1428983 -0.057399035 0.3903045 -0.07952275
0000d0 86 96 1d 3e 42 8f a9 be 25 9c ac 3d f0 c8 9b be
       0.15389451 -0.3311711 0.0842822 -0.3042674
0000e0 ad d7 74 be 2e c0 4b be eb 88 39 3e f6 7c 20 be
       -0.23910399 -0.1989753 0.18118636 -0.15672669
0000f0 47 eb 54 be d0 3b 46 be e7 c3 d2 3e 60 d2 63 bd
       -0.20792876 -0.19358754 0.41165087 -0.05562055
000100 c1 cb af be 9d 5c 89 3e 81 ef 95 be e2 0f 88 be
       -0.3433514 0.2682847 -0.2928429 -0.26574618
000110 c8 b6 ba be 9b 2b 57 be 88 b7 0e bf 47 e5 39 be
       -0.36467576 -0.21012728 -0.55748796 -0.18153869
000120 e2 2f a7 3e aa 1c 4d bd e4 37 82 3a 44 a4 94 bc
       0.3265372 -0.050076164 0.000993487 -0.018144734
000130 a5 ed c7 be c2 47 96 bd 89 be c3 be f3 7d 1d be
       -0.39048496 -0.073379055 -0.38231304 -0.15380077
000140 1b c1 f5 3d f6 b7 17 bf 2b 7d 72 be 21 9b df bd
       0.119997226 -0.5926508 -0.2368056 -0.1091826
000150 5f 0c e2 3e c6 8d cf 3d 6a 36 05 bf c7 82 44 be
       0.44150063 0.10134463 -0.52036154 -0.19190513
000160 5f 69 10 3d e9 a9 3f 3e d3 e1 72 3e 93 ad 3f 3d
       0.03525674 0.1871716 0.23718958 0.046796393
000170 3e b5 6f be df b8 0e 3c 1f 5b cc 3d 74 8b a1 3c
       -0.23408982 0.008711069 0.099783175 0.019719817
000180 86 62 de 3d 41 99 86 3e 24 c3 74 3e b0 7c 8a be
       0.108586356 0.26288798 0.23902565 -0.27048254
000190 c0 cf d6 3e b4 cc e3 3e 35 3b 89 3e 88 c8 83 3e
       0.41955376 0.44492114 0.26802984 0.2573893
0001a0 2d 08 78 3e 46 e0 87 3d 67 d4 8f 3e 10 ad 9f be
       0.24221869 0.06634574 0.28091738 -0.31186724
0001b0 70 c3 f3 be a6 f7 00 bf 23 f2 4d bf a2 35 a9 3a
       -0.47610044 -0.5037788 -0.80447596 0.001290966
0001c0 33 4c 5c 3e 61 2f 9a 3d d0 16 98 3e c4 dd 4f bf
       0.21513443 0.07528568 0.29704905 -0.8119776
0001d0 46 00 3a bf 71 da dd bd c0 d3 8d bd 53 26 88 3e
       -0.7265667 -0.1083268 -0.06925154 0.2659174
0001e0 66 69 dd 3e 20 e1 09 3f 10 33 8f be cb c6 94 3d
       0.43244475 0.5385914 -0.27968645 0.07264479
0001f0 06 ac f9 3e 8e 68 0c bf 65 b9 11 be 20 c0 96 be
       0.48764056 -0.5484704 -0.14230879 -0.29443455
000200 2c 62 cb 3e 7f ce c3 3c 50 b1 21 3e 50 48 a8 3e
       0.39723337 0.023902176 0.15790296 0.3286767
000210 cc 5e 0c bf 4a 8b 33 3e 15 7b 1f be 37 98 e5 be
       -0.5483215 0.17533603 -0.15574296 -0.44842693
000220 1e d5 f8 3d 6e 8d 8c bd d5 06 f2 bd bf 08 b4 3e
       0.12150024 -0.06862913 -0.11817709 0.35162923
000230 d0 ec be be 3d aa 4f 3d c1 fb da be bc 37 f9 be
       -0.3729005 0.05069946 -0.42770198 -0.48675334
000240 2e a3 88 be 9d f7 84 3e d0 44 66 be 22 6b 10 3d
       -0.26686996 0.25970164 -0.22487187 0.03525842
000250 7d 9d 03 be c6 de 8d be ee b3 5c bf 94 0e 09 be
       -0.12853046 -0.27709025 -0.8621205 -0.13384467
000260 4f 54 cb 3e f8 34 95 3e f1 1c 4d 3e 0c df b5 3e
       0.3971276 0.29141974 0.20030572 0.35521734
000270 19 5c 23 3f 2f 5d 80 3d ce 3e bd bd 49 34 16 be
       0.63812405 0.06267773 -0.09240495 -0.14668383
000280 1f c5 56 3d e1 e0 b9 3c 1b 9c e0 3e 31 a4 8d bd
       0.052434083 0.022690238 0.438691 -0.06916083
000290 1e 66 8b 3e e8 2a ac be da 4f 92 be 14 da 20 be
       0.27226347 -0.33626485 -0.28576547 -0.1570819
0002a0 dd 5b 9c 3e 56 f0 db be e7 df ee bb e5 60 17 3d
       0.30538836 -0.429568 -0.007289875 0.03695764
0002b0 5d 81 25 3e 9e f7 9d 3d a7 b7 62 be 09 ed ee 3e
       0.1616263 0.07713245 -0.2214037 0.46665218
0002c0 58 4a 02 bd 2d 0e d7 be 08 56 e2 bc 64 ff ca be
       -0.03180918 -0.42003003 -0.027628914 -0.39647973
0002d0 f9 73 54 be 6d 58 af be ff 18 9d 3e 69 d4 c8 bd
       -0.20747365 -0.3424715 0.30683133 -0.09806139
0002e0 07 9b 0f 3f 14 3e d5 be 1a 3c c0 bd 34 ec 64 3e
       0.5609593 -0.41648924 -0.093864635 0.2235573
0002f0 ef cc 81 be 12 f4 b0 3e 98 3d c2 be 1b 7e de be
       -0.25351664 0.3456121 -0.37937617 -0.43455586
000300 1d 29 a5 3e 5f f1 25 3e fc 6a 39 be 95 89 25 3b
       0.3225793 0.16205357 -0.18107218 0.0025259007
000310 7a 00 03 3f 40 a6 28 bd b6 98 a3 be ed 1d f0 3e
       0.511726 -0.041174173 -0.31952447 0.46897832
000320 4f a4 b6 3e 7b 41 f3 be 71 c9 37 3b 5c 20 3e be
       0.35672233 -0.47510895 0.0028043652 -0.18567032
000330 74 68 ae be 1f e9 ac be a1 46 8a bc b8 2f 97 be
       -0.34064066 -0.33771607 -0.016879382 -0.29528594
000340 3e c8 9b 3e e7 bc b1 bd 42 33 8b bd 36 ce db 3e
       0.3042621 -0.086786084 -0.06796886 0.42930764
000350 33 b7 9e be 93 78 a5 be 4c 05 b9 3e 8d 31 17 be
       -0.30999145 -0.32318553 0.36136854 -0.14764996
000360 c6 68 ec be 57 e7 9a 3e 01 b7 06 bd 14 f9 1f be
       -0.46173686 0.30254623 -0.03288937 -0.1562236
000370 f8 81 17 3d f4 d4 35 bd 25 9e a2 3e a3 4b 4d be
       0.036989182 -0.04439254 0.3176128 -0.20048384
000380 5b b9 d7 be 4d 38 7d be 82 db 26 be 97 f7 04 3e
       -0.42133602 -0.24728508 -0.16294673 0.12985073
000390 5d a0 81 3e 61 7d 9a 3e ce 28 71 3e ea 2a 36 3e
       0.2531766 0.30173782 0.23550722 0.17789808
0003a0 0a 11 b4 3e 47 07 09 bf 40 ab 13 be 05 29 87 bc
       0.3516925 -0.5352673 -0.14420795 -0.016499052
0003b0 bd fe b6 3d c4 b7 b6 be d6 f5 ad 3e b8 63 89 3e
       0.08935306 -0.35687077 0.3397662 0.26833892
0003c0 e6 83 c8 3e 64 a3 01 3f 7c dc 9e 3e 1c 59 25 be
       0.3916313 0.5063994 0.3102759 -0.16147274
0003d0 3f 39 92 3e 11 b9 b0 bd 21 27 8d 3d b0 b8 28 be
       0.285593 -0.086290486 0.06892229 -0.16476703
0003e0 aa 50 ec 3e b2 0d 8f 3e 72 3e dd 3d 6b 8b 9e bd
       0.46155292 0.27940136 0.10802926 -0.077414356
0003f0 7e 0c 21 be d0 ae e4 bd ad 7e b7 be 1d fa 83 3e
       -0.15727422 -0.11166155 -0.35838833 0.2577676

encoder_loc.1._F.0.bias f4 [200]
000000 65 fd 2d be d6 49 7f 3d a9 65 8e 3e 29 43 f9 3d
       -0.16991194 0.062326275 0.27811936 0.12171013
000010 a5 1a 62 be a8 b6 8f 3d 59 d2 00 3e d6 e4 c3 be
       -0.22080477 0.07017261 0.12580241 -0.38260525
000020 13 23 e6 3e 67 16 dd 3e 29 0a 05 be e3 9f 9f be
       0.44948635 0.43181154 -0.12992157 -0.3117667
000030 ae 7e 24 bd ec af a3 3d f5 f4 cd be bf 5c 79 be
       -0.040159874 0.07992539 -0.4022595 -0.24351786
000040 12 7e a8 3e c4 16 83 3d 62 85 0d bf 70 d8 d8 be
       0.32908684 0.064008266 -0.5528165 -0.4235263
000050 ca f8 c3 be 86 92 d4 bd 3c a9 53 bd ad 8a 7a 3e
       -0.38275748 -0.1037951 -0.051675066 0.24466963
000060 c4 ed 96 be 45 60 bd be e8 f2 b9 be f0 fc 8f 3e
       -0.29478276 -0.3698751 -0.36318135 0.28122663
000070 c5 ae 64 be 93 41 80 be ad 0f c6 bc 8a 4d 80 bb
       -0.22332294 -0.2505003 -0.024177397 -0.0039154934
000080 78 be 33 be 3c 74 a0 3e 46 91 01 bf 41 ad 2c be
       -0.17553127 0.3133868 -0.50612295 -0.16862966
000090 a0 c5 49 bd 3e 6f 5b be 32 47 72 bc 71 b6 71 3e
       -0.049260736 -0.21429154 -0.014787482 0.23604752
0000a0 fc 5c 71 3e 58 4f bf 3e 5c 5f 46 3d f5 8d c4 3e
       0.23570627 0.37365222 0.048430786 0.38389555
0000b0 c5 da c4 be bd e8 c2 be 3a d7 73 be e7 47 1f bd
       -0.38448158 -0.3806819 -0.23812571 -0.03888693
0000c0 5f 86 55 bd b9 45 47 be d1 e4 fa be 1b cd 9e be
       -0.0521301 -0.19460191 -0.49002698 -0.31015858
0000d0 22 75 f3 bd f4 0b 68 3e f6 f3 99 3e 60 d9 bb be
       -0.11887576 0.2266081 0.3006894 -0.3668928
0000e0 21 34 79 be b1 01 d1 3d 06 72 84 be a0 bc 59 3e
       -0.24336292 0.10205401 -0.25868243 0.21263361
0000f0 d2 38 70 bd 84 d0 90 3e a4 64 f9 be 62 52 40 be
       -0.058647938 0.28284085 -0.48709595 -0.18781427
000100 dc 71 41 3e f6 8f 15 be 90 ad b4 be a0 2a b9 37
       0.1889109 -0.14605698 -0.35288668 2.2073567e-05
000110 6a 82 5c 3e 9b a5 fd 3d d7 8d 57 be 2e 58 b9 be
       0.21534124 0.12385102 -0.21050201 -0.36200088
000120 e1 07 c4 be 47 a8 5c 3e 31 81 c7 3d 93 de 7a be
       -0.3828726 0.21548568 0.09741438 -0.24498968
000130 bf fc e0 3e 65 08 bf be 3e 8b a6 be 0f 81 26 be
       0.4394283 -0.37311092 -0.32528108 -0.1626017
000140 40 c1 34 be 5d 0d 66 3e 69 15 df 3e 49 d5 d7 bc
       -0.17651844 0.22466035 0.43571022 -0.02634682
000150 38 91 da 3e 25 5a c8 bd da 8e d1 bd 2d f4 a0 bd
       0.42688918 -0.09782819 -0.10232325 -0.07859073
000160 9f 3d 26 3e d0 c7 8e 3d 62 04 da be 81 e6 b7 bd
       0.16234444 0.06971705 -0.4258147 -0.08979512
000170 4a 35 d6 be c4 6e 7a be 3d 41 ba bd 54 2d dc be
       -0.4183753 -0.24456316 -0.090944745 -0.43003333
000180 a0 d6 2b 3e a3 55 34 3e 1c 9a 9b 3e 0d 8f 2c be
       0.16781092 0.17610793 0.30391014 -0.16851445
000190 f4 1e eb bd 83 ae 09 bf 64 92 b3 be e0 b7 8a be
       -0.11480513 -0.5378191 -0.35072625 -0.2709341
0001a0 9a 2b 4e be 90 b2 5b bd b2 95 48 be 20 ab 26 3e
       -0.2013382 -0.053637087 -0.19588354 0.16276217
0001b0 87 ce ef be 82 3c c7 3d 6c 78 ea 3d 7e 47 d5 3e
       -0.46837255 0.09728338 0.1144875 0.41656107
0001c0 f1 4e 32 bd 61 8c 23 bd b5 c3 0e 3e b7 6e e7 bd
       -0.043532316 -0.039928798 0.13941844 -0.11300414
0001d0 b7 b6 91 be 67 d6 25 be ca 71 ad 3e b8 46 d8 be
       -0.28459713 -0.16195069 0.33875877 -0.42241454
0001e0 49 1a f3 3e 7a e3 9e 3e ee a8 57 3e 30 8b b7 3e
       0.4748099 0.31032926 0.21060535 0.3584838
0001f0 cc dd 42 3b 50 bf bd 3d d9 0d 51 be 72 04 b6 3e
       0.0029734252 0.092650056 -0.20415439 0.35550267
000200 37 2c ec bd 09 cf 39 bd e7 bf cc 3c 18 04 08 bf
       -0.11531871 -0.04536346 0.02499385 -0.53131247
000210 34 e5 02 bf 67 d4 cf bd 87 46 5a be ff 2c d6 3e
       -0.51130986 -0.101479344 -0.21315967 0.41831204
000220 dc 0f 71 3d 36 d2 57 3e 2d 15 83 be 27 c4 fb bd
       0.058853015 0.21076283 -0.25602093 -0.122932725
000230 b3 70 b3 3e b2 12 3c 3e eb cf 96 3e 46 0a 5b be
       0.3504692 0.18366507 0.29455504 -0.21390638
000240 a8 15 75 be bf c8 b9 be 9b ec f2 3d 4a d1 aa 3e
       -0.23934042 -0.3628597 0.11861535 0.333628
000250 d5 0d dc 3d c2 39 b3 3e b7 1f 98 be 5d df 4c bc
       0.10744826 0.35005003 -0.29711697 -0.012504426
000260 af dd c4 3e da 83 88 3e 13 f0 b1 be 87 3c ee be
       0.3845038 0.26663095 -0.34753475 -0.46530554
000270 8c 62 40 3e 10 99 d5 be eb 8f 77 3e 8b 8e df bd
       0.18787593 -0.4171834 0.24175994 -0.1091586
000280 0b 0f 09 bd 23 bb 8a bc c4 16 1d be 2f 32 9c 3e
       -0.03346161 -0.016934937 -0.15340716 0.30507037
000290 c8 ca 26 3e 13 32 f3 be e9 94 ab bd ee 68 b9 3e
       0.16288292 -0.4749914 -0.08378012 0.36212867
0002a0 8e de 98 3e 3c f2 dc bd 4d da 18 3e 77 2d 40 3e
       0.29857296 -0.1078839 0.14927025 0.18767343
0002b0 b0 af 94 be b6 43 0b bc a8 ab 8a 3c 75 0c d2 be
       -0.2904029 -0.00850003 0.016927555 -0.4102513
0002c0 19 44 5c bd 22 18 00 be 91 a1 90 be f6 24 dc 3e
       -0.05377588 -0.12509206 -0.28248265 0.4299695
0002d0 20 3d b4 3d 3b 8c 40 bd c9 bd c1 3d c3 60 ef be
       0.08800721 -0.047008734 0.09460027 -0.4675351
0002e0 83 15 c9 bd 26 73 b5 3e 7a 9a 15 be ef b1 3f be
       -0.09818556 0.35439414 -0.1460971 -0.1872022
0002f0 e7 e4 98 3e eb 45 2b 3e fe 57 ee bd f9 1c 04 bf
       0.2986214 0.1672589 -0.11637877 -0.5160671
000300 9e 60 d8 be 5e 9c 4c 3d d9 57 e3 3e b3 29 16 3e
       -0.42261213 0.04995381 0.4440296 0.14664344
000310 77 05 7f bc d9 8e a2 3e 08 df 08 be 33 c1 4f 3d
       -0.015565268 0.3174961 -0.1336633 0.05072136

encoder_loc.1._projection.weight f4 [200, 5]
000000 78 90 4b be 3b e5 ae be d1 96 96 3d 7b 0b e1 be
       -0.19879329 -0.34159264 0.07352985 -0.4395407
000010 39 6e c2 be 86 c4 ff 3d 49 a8 93 be 38 0d c1 3e
       -0.37974718 0.12488656 -0.2883933 0.37705398
000020 f4 d1 c9 3e 79 d8 af be 41 1d 84 3e 65 bd cf be
       0.39417994 -0.34344843 0.2580357 -0.40574184
000030 42 24 3b 3e 37 8c cf 3e 74 d1 f3 3d 14 55 bf 3e
       0.1827555 0.40536663 0.119051844 0.37369597
000040 b8 e1 05 be 02 4e 91 3e 33 98 38 be c2 78 04 3e
       -0.13074386 0.28379828 -0.1802681 0.1293669
000050 9a 46 84 be 2a 53 89 bd 08 2e 9f be fb e8 bc 3e
       -0.25835115 -0.067053154 -0.31089807 0.368965
000060 35 6f a9 be 17 88 f7 be 37 ed 10 be 46 c6 56 3d
       -0.33092657 -0.48346016 -0.1415299 0.052435182
000070 80 7e fa be 1a 2f 82 be 6b 61 5f 3e be bd a7 be
       -0.48924637 -0.2542656 0.21814506 -0.3276195
000080 4b 9a d5 3e ce 15 d8 3e fb ad d9 3d cd 35 51 be
       0.4171928 0.42204136 0.10628887 -0.2043068
000090 2a 90 a7 be de 96 48 be cf 12 b1 be b8 b1 e0 be
       -0.32727176 -0.19588801 -0.34584662 -0.4388559
0000a0 1c 04 2e be fa 5b 45 3f f5 7e 2f 3d 07 d8 46 be
       -0.16993755 0.7709347 0.042845685 -0.19418345
0000b0 63 75 8a 3e bb 54 c3 3e 9a 4f 71 be e4 15 f2 3d
       0.27042684 0.38150582 -0.23565522 0.118205816
0000c0 30 83 6f 3e c1 95 62 be 4b b9 35 3f 57 29 3f 3d
       0.23389888 -0.22127439 0.7098586 0.046670284
0000d0 9a 0d 0a be 28 0f 48 3e 3d 60 43 bd 10 c0 3c 3e
       -0.13481751 0.19537032 -0.0476992 0.18432641
0000e0 ae 1c b7 be 2a f5 c6 bc e3 b1 11 bb fe 3d 9b be
       -0.35764068 -0.024286825 -0.0022231273 -0.30320734
0000f0 8b 6b 21 3e 44 43 23 3f 7a e2 9c 3d ee 79 09 bc
       0.1576368 0.63774514 0.076603845 -0.008390887
000100 02 ef df 3d 10 1a 12 3e 20 24 f9 be 06 1d 57 3e
       0.10934259 0.14267755 -0.48660374 0.21007165
000110 ad 1d 55 3e 37 a0 d1 3e 80 7f 7e be 48 b3 b1 bc
       0.20812102 0.40942547 -0.24853325 -0.021691933
000120 64 92 57 be 2e df 94 be bc 68 4f be 5f c0 9a 3e
       -0.21051937 -0.29076523 -0.20254797 0.30224892
000130 77 5e 20 bf c8 9a 51 be 02 ae 09 be b0 ad 9f bd
       -0.6264414 -0.204692 -0.13445285 -0.077968
000140 54 91 9c bd 03 61 c1 3e d2 39 47 be 50 f1 94 be
       -0.07644907 0.37769327 -0.1945565 -0.29090357
000150 f5 7f de be 17 68 fa bd 10 89 0e bf e5 5d b5 3e
       -0.43456998 -0.12226885 -0.5567789 0.35423198
000160 1a 5b 41 be 3f e5 6f be 5e 69 70 bd 08 97 b6 be
       -0.18882409 -0.23427294 -0.058694236 -0.35662103
000170 ce df 03 3f 70 26 92 be fe 7b b5 3d bb fc dc 3c
       0.51513374 -0.2854495 0.0886154 0.02697598
000180 d1 59 c2 be 57 5b a9 bc 43 4a 7b be c2 40 63 be
       -0.3795915 -0.020673437 -0.24540047 -0.22192672
000190 a2 63 9a 3d 05 f8 d2 3d 66 43 63 3e 05 88 93 3e
       0.07538535 0.10301212 0.22193679 0.28814712
0001a0 b3 d9 c6 3e 81 e4 8b 3d 58 5c a5 be 17 9d f6 3e
       0.38837966 0.06830693 -0.32297015 0.48166725
0001b0 5b 4a c4 be 5a 7d 01 3e 7f 44 b0 be bd 41 6d be
       -0.3833798 0.12645474 -0.34427258 -0.23169608
0001c0 2d 31 53 3e 02 89 69 3e 08 61 b5 be b4 22 5d be
       0.20624228 0.2280617 -0.3542559 -0.2159527
0001d0 3d d9 90 3d a5 00 db bd 07 e9 a6 3e 46 93 22 bd
       0.07072685 -0.10693482 0.3259966 -0.039691232
0001e0 20 da 0d bc a1 db 0b 3e b8 18 41 3e c2 5e c8 3e
       -0.008657962 0.13658 0.18857086 0.39134794
0001f0 0b 1b 0f 3e 06 a6 ce 3e 1a a1 e0 3e 64 c2 9c bd
       0.1397516 0.4036104 0.4387291 -0.076542646
000200 42 20 ba 3e 88 da ae 3d be e3 d7 3e d4 b1 ab 3e
       0.36352736 0.08537775 0.4216594 0.3353411
000210 e4 00 a3 bc 9f b5 cc 3e 87 08 ca bd 5f cc d4 be
       -0.019897886 0.39982316 -0.09864908 -0.41562173
000220 71 38 da 3d 09 ef 11 3e de cf a2 be bd 79 0d be
       0.106552966 0.14251341 -0.31799215 -0.1381597
000230 3f 4c 00 be ab 4a eb be 0c 1e ec 3e 71 de e5 bd
       -0.12529086 -0.45955405 0.46116674 -0.11224068
000240 be 68 58 3e cb 7f 98 3e 7d 82 7f be f6 57 89 3e
       0.21133706 0.29784998 -0.24952121 0.2682492
000250 18 32 38 3e f3 a9 c4 be 85 30 b1 be b2 20 ef bc
       0.17987859 -0.3841091 -0.3460733 -0.029190395
000260 8b 3d 8b be b2 fb 7c bd 81 5e 81 be 30 a5 44 bd
       -0.2719539 -0.061763473 -0.25267413 -0.048009098
000270 3d 1e 4b 3d fd 0e cc be 79 76 73 3d 30 1e 8c be
       0.049589384 -0.39855185 0.059439156 -0.2736678
000280 8b 5f ce 3d a7 b7 7d bd ed 69 1d be e4 a6 c1 3e
       0.10076817 -0.061942723 -0.15372439 0.3782264
000290 f6 de ae 3e 28 5a 61 3e ce 37 17 3f a4 c2 1e be
       0.3415448 0.22007048 0.59069526 -0.15503937
0002a0 81 23 85 be d0 3c 98 3e 2e 74 25 3f 3f 62 0c be
       -0.2600365 0.29733896 0.646304 -0.13709353
0002b0 b1 d5 1d 3c c9 d8 76 3e 61 97 34 be 12 75 40 be
       0.0096334675 0.24106134 -0.17635871 -0.18794659
0002c0 4d 23 d9 3e 87 90 8b 3d ed 20 a6 3e 0f 23 e2 3e
       0.42409745 0.06814676 0.32446995 0.44167373
0002d0 f6 70 7d bd 3f 3c 18 3f da a3 47 be a1 a5 c4 bd
       -0.061875306 0.5946693 -0.19496098 -0.09601904
0002e0 fe 01 8f be 52 f2 54 3e 94 bc 62 be 81 2c bc 3e
       -0.27931207 0.20795563 -0.2214225 0.36752704
0002f0 df 26 9d be 4b 04 91 be 6c 4b 2d be 52 f3 95 be
       -0.3069372 -0.28323588 -0.16923302 -0.292872
000300 43 17 ae 3e cc 1b 9c be 61 80 cc 3b 7d 62 4d be
       0.34002122 -0.30489957 0.00624089 -0.20057102
000310 56 3f e5 3e 1e 18 78 3e 41 5f c6 3e 67 99 73 be
       0.44774884 0.2422795 0.38744548 -0.23788987
000320 cc 01 0d 3e 2f 6b c6 be 62 be 6f be a5 a1 12 3d
       0.13770217 -0.3875365 -0.23412469 0.035798687
000330 5c cf 90 3e 6c e1 e5 be b9 f8 cd bd 4b 63 15 be
       0.28283203 -0.44898546 -0.10057206 -0.14588659
000340 e9 3f 70 be 4a 2f 0c 3d 1a 6b 20 bf e2 a7 8a be
       -0.2346188 0.034224786 -0.62663424 -0.2708121
000350 a2 72 28 be 20 aa 8f 3e b5 6d 83 be ba 83 e1 be
       -0.16449979 0.28059483 -0.25669637 -0.44045812
000360 8b 2a ca be 5f 49 8c bd 8d ac 82 be bc 6d 71 3e
       -0.39485583 -0.06849932 -0.2552227 0.23577017
000370 44 d6 3a be 4f a2 b7 bd d3 34 84 bb 51 29 64 be
       -0.18245798 -0.08966505 -0.0040346175 -0.22281386
000380 5d 2d ff bd a1 02 89 3d 22 ab 73 bc 0b 00 bb 3e
       -0.12459824 0.066899545 -0.014872344 0.3652347
000390 d2 88 cc be eb 67 ad 3e 9c ff 23 3f f8 26 6a 3d
       -0.39948136 0.33868346 0.64061904 0.05716607
0003a0 4e 77 30 be 2f f2 7a 3e 3f df 4d be 38 2c 3d bb
       -0.17233011 0.24506448 -0.20104693 -0.0028865468
0003b0 c6 f7 0e bf a4 25 40 be 1e 20 35 bd d9 eb d8 be
       -0.5584682 -0.18764359 -0.044220082 -0.42367437
0003c0 dc 08 5c 3e 5c bf e8 3d 2c 24 2f be d3 50 27 be
       0.21487755 0.11364624 -0.17103642 -0.16339426
0003d0 c7 7e 88 be c0 cd a2 3e 14 24 9f bd 19 98 c3 be
       -0.26659223 0.317976 -0.07770553 -0.3820198
0003e0 26 05 02 3f aa 71 b9 3d 07 d1 8a be bb 03 26 3e
       0.50789106 0.09054883 -0.271126 0.1621236
0003f0 b8 b2 8b be ab 02 3b be 35 80 a3 bd 83 73 1f be
       -0.2728479 -0.18262736 -0.07983438 -0.15571408

encoder_loc.1._projection.bias f4 [200]
000000 a3 81 82 3d 1f cd c2 be 2b b4 cc be b5 a4 ad 3e
       0.063723825 -0.3804712 -0.39981207 0.33914724
000010 75 38 10 bd fa 9f b1 3e f4 65 a3 be 9e e2 71 3e
       -0.03521009 0.34692365 -0.31913722 0.23621604
000020 d7 eb b4 be 8a 69 01 3f 6d ec 81 3d 72 40 68 be
       -0.35336182 0.50551665 0.06343923 -0.22680834
000030 e9 9c ed 3e 8b 55 6e 3e 07 62 c1 3e e5 c3 44 be
       0.46408775 0.2327482 0.377701 -0.19215353
000040 2f 55 5b be 15 35 93 bc 6b 76 13 bf 72 1a f7 be
       -0.21419214 -0.017969647 -0.57602566 -0.48262364
000050 01 66 6e be 43 47 5e 3e cf f2 c1 be 3d 2c 9e bd
       -0.23281099 0.21706872 -0.3788056 -0.077232815
000060 27 bd b9 be 2d 8f 5f bd 23 a9 d1 3d af 8d 85 be
       -0.36277124 -0.054579902 0.102373384 -0.26084659
000070 4a 57 23 be 11 32 7c 3e a2 21 15 be 6b 65 0c 3c
       -0.15951267 0.24628474 -0.14563611 0.008569102
000080 72 04 76 3e ea 5c 6e 3e 4f 98 88 3e 0a d1 ad 3e
       0.24025133 0.23277631 0.26678702 0.33948547
000090 f5 5f e5 be ad 18 d5 3e db 16 8e 3d 3d 56 14 bb
       -0.44799772 0.4162039 0.06937953 -0.002263441
0000a0 96 c0 a5 be 0d 09 e4 bb dc b5 83 be f1 b0 96 3e
       -0.32373494 -0.0069590867 -0.25724685 0.2943187
0000b0 22 2d cf be 6e 53 62 be f0 66 12 3d 9b d4 2a 3d
       -0.4046412 -0.22102138 0.0357427 0.041706663
0000c0 95 be 9a bc d2 c9 42 be 35 7e 90 bb 1d 53 e5 3e
       -0.018889705 -0.19022301 -0.0044095763 0.44789973
0000d0 21 cd b5 3e 7d aa ea be d2 c3 9a 3e 28 13 c5 3e
       0.35508063 -0.45833197 0.30227524 0.38491178
0000e0 fd bb be bd e1 a3 e4 be 9e 08 a4 3d 59 41 fe 3e
       -0.093132 -0.4465628 0.08009456 0.4965923
0000f0 1c 18 3e be af 6f 85 3d dc 0f 99 3c f3 2e e9 bd
       -0.18563884 0.065154426 0.01868432 -0.11385908
000100 0e 28 80 3e af 7b 5a be 33 39 6b be 81 17 de be
       0.2503056 -0.21336244 -0.22971039 -0.43377307
000110 88 bb 12 3d 25 16 f8 3d 6d 15 c4 bd a3 6b 01 3f
       0.035823375 0.12113599 -0.09574399 0.50554866
000120 62 84 8f 3e 5b 5b 9d bd 95 bd 92 3d 28 d9 ca 3c
       0.28030688 -0.0768344 0.07165066 0.024761751
000130 4f c4 5c 3e c1 a2 84 3e 2f 7b 9c 3e 63 b3 00 3c
       0.21559261 0.2590542 0.30562732 0.007855269
000140 6f 3a 1d 3e ef 3d a1 bd 10 2c 74 3e ed 6e b4 3e
       0.15354322 -0.07873141 0.23844934 0.3524088
000150 72 ea a4 be 2e 46 00 3e a9 af fa be 62 87 89 3e
       -0.32210118 0.12526771 -0.48962143 0.268611
000160 91 d0 38 3e 09 fd f3 3e 81 1c 2a be fc c6 7a 3e
       0.18048312 0.47653988 -0.16612436 0.24489969
000170 ce 0d 32 3e 9f de 15 be 80 7b ba 3e 7b 2a ca 3e
       0.17388079 -0.14635704 0.36422348 0.39485535
000180 88 42 5e be 6c ff 0f 3c f2 35 c9 3e 53 0b 24 bd
       -0.21705067 0.008788925 0.3929897 -0.040049862
000190 c1 52 1d 3e 31 02 74 3e 79 d5 db 3e 84 1c 9b 3e
       0.153636 0.23828961 0.42936304 0.30295193
0001a0 65 a1 89 be e3 9b 5b 3e 04 c9 93 be 95 47 f0 3d
       -0.26880947 0.21446185 -0.288643 0.11732403
0001b0 c4 b9 05 3f b3 fa 95 3e 22 57 97 be e2 b3 87 3e
       0.5223658 0.2929283 -0.29558665 0.26504427
0001c0 2e cc a5 3e b2 55 11 be 6e 19 c1 bc cd d8 a9 be
       0.3238234 -0.14192846 -0.023571696 -0.33173218
0001d0 3a 17 8c 3e 43 d0 b7 be 0b 0e bc 3e 6d d0 a8 3e
       0.2736147 -0.3590108 0.36729464 0.32971516
0001e0 2e dc 08 3f eb b9 c2 be 25 30 1c be ce 6c cf be
       0.5346097 -0.3803247 -0.1525274 -0.405127
0001f0 6b 2a d5 3e e3 eb 05 bf d4 ea d7 3e c5 23 3a bf
       0.41633925 -0.5231306 0.42171347 -0.7271083
000200 a4 d8 7a 3e 94 da 5c 3e d3 b0 ea be 66 96 c4 be
       0.24496704 0.21567756 -0.4583803 -0.38395995
000210 10 ee d4 bd cc 48 76 3e 2d 10 38 3e 3d 40 4d 3e
       -0.10396969 0.24051207 0.1797492 0.20044036
000220 c1 f5 13 bf de 1f df be e9 54 db 3e 28 37 7e bc
       -0.57796866 -0.43579 0.4283822 -0.01551608
000230 09 38 06 3f 2d 31 d7 bd 2a 36 7a 3e 68 ab 92 be
       0.5242925 -0.105074264 0.24434724 -0.28646398
000240 7e 4c 51 3d f1 6b 8e 3e 6b b0 17 3e d3 d9 ac be
       0.05109834 0.27816728 0.14813392 -0.33759937
000250 57 da b2 be d3 2d 74 3e 49 b0 a4 3e 9d 08 89 3e
       -0.34932205 0.23845606 0.32165745 0.26764384
000260 7e 0b 78 be b6 22 51 3e e2 56 c7 3e 9c f0 22 be
       -0.24223134 0.20423397 0.38933474 -0.15912098
000270 c4 76 ca be 9f 29 87 be 01 d6 de bd 74 83 b7 3e
       -0.39543736 -0.26398942 -0.10880662 0.35842478
000280 e5 29 47 3e f6 46 47 be a1 59 88 be 78 14 44 3e
       0.19449575 -0.19460663 -0.2663088 0.19148433
000290 ca a7 95 bc c1 1e 5a 3e 2a c0 ae bd 6a f1 27 be
       -0.018268485 0.21300794 -0.08532746 -0.16400686
0002a0 b0 21 3e be 17 b1 14 3e 21 e8 06 3f 57 ee 95 bd
       -0.18567538 0.1452068 0.5269795 -0.0732085
0002b0 98 0b b6 bc 8f 61 fc 3d 1d 5a bc be d9 f8 66 be
       -0.022222325 0.12323295 -0.367875 -0.22555865
0002c0 4b e2 a5 be d4 de a1 be 79 83 93 3e 0d a5 ce be
       -0.3239921 -0.31615317 0.28811243 -0.403603
0002d0 6b 42 ac be ed 9d 00 bf 8d b8 cc be 7b 60 dd bc
       -0.33644423 -0.50240976 -0.3998455 -0.027023545
0002e0 1f 25 21 bd b4 77 9c 3e d6 2f 4c 3e f4 17 a3 3e
       -0.039342042 0.30560076 0.19940123 0.31854212
0002f0 e0 4f 2d 3e 0c 65 be 3e a6 07 e1 3d 6e c2 ec 3d
       0.16925001 0.37186468 0.10987787 0.11560522
000300 e4 2f 19 bf d6 ee 93 be 8c a4 e2 3e 42 e2 55 3c
       -0.598387 -0.28893155 0.44266164 0.013054432
000310 e3 b3 b8 3e 09 b7 ba 3e 14 de e0 be 4d bf 0f 3e
       0.36074743 0.3646777 -0.43919432 0.14037819

encoder_loc.2.weight f4 [200]
000000 fb f6 83 3f 3b ee 72 3f 9d d4 83 3f 8d 37 5d 3f
       1.0309747 0.9489476 1.029926 0.8641289
000010 e9 55 81 3f df 11 86 3f 72 53 82 3f 28 d3 83 3f
       1.0104343 1.0474204 1.0181715 1.0298815
000020 b3 b3 6d 3f 7a b2 80 3f 6c f4 88 3f f4 8c 82 3f
       0.92852324 1.0054467 1.0699592 1.0199265
000030 88 c9 73 3f f3 9a 79 3f e0 a7 72 3f f4 e5 8d 3f
       0.9522939 0.9750206 0.94787407 1.1085801
000040 92 2a 8c 3f eb b7 81 3f 50 21 69 3f e0 77 57 3f
       1.0950491 1.0134252 0.91066456 0.8416729
000050 13 1c 84 3f e5 1d 80 3f b8 e7 83 3f 87 1b 9b 3f
       1.0321068 1.0009123 1.030509 1.2117776
000060 84 b5 88 3f 23 e0 84 3f 58 34 6b 3f 53 08 80 3f
       1.0680394 1.0380901 0.91876745 1.000254
000070 f4 48 7d 3f ea 56 7a 3f fe 75 90 3f 64 96 62 3f
       0.9893944 0.9778887 1.1286008 0.8851073
000080 10 df 54 3f c6 10 69 3f 37 68 72 3f f7 0a 8b 3f
       0.83152866 0.9104122 0.9469027 1.0862721
000090 fd 32 78 3f a3 79 7f 3f e0 d0 7e 3f 5f 50 97 3f
       0.969528 0.9979498 0.9953747 1.1821402
0000a0 6a 5f 7c 3f d4 42 76 3f a5 0d 7e 3f 93 28 74 3f
       0.9858309 0.9619572 0.9923957 0.9537441
0000b0 30 55 6f 3f 98 5c 5d 3f 94 93 6b 3f 7d 97 64 3f
       0.9348936 0.8646941 0.9202206 0.8929365
0000c0 26 85 5e 3f 76 f5 61 3f de 0d 60 3f 4e 14 80 3f
       0.8692192 0.8826517 0.8752116 1.0006196
0000d0 c6 6d 6a 3f 3e e8 62 3f 72 54 88 3f 1d 52 84 3f
       0.9157375 0.88635623 1.0650771 1.0337559
0000e0 0a 63 8e 3f 56 73 90 3f 21 72 7c 3f d0 98 a6 3f
       1.1123974 1.1285198 0.98611647 1.3015385
0000f0 92 6f 7a 3f 82 c6 87 3f da 94 50 3f 91 b7 8a 3f
       0.9782649 1.0607455 0.8147713 1.083727
000100 50 34 81 3f 09 d0 6f 3f c0 d4 74 3f 56 ed 81 3f
       1.009409 0.9367681 0.9563713 1.0150554
000110 4c 80 86 3f 40 a0 71 3f 10 c9 8f 3f f4 59 7e 3f
       1.0507903 0.9438515 1.1233234 0.9935601
000120 e3 fd 5a 3f fb 1d 46 3f d2 aa 98 3f 1c 8e 73 3f
       0.8554365 0.77389497 1.192713 0.95138717
000130 17 47 72 3f f4 9f 7f 3f 5a c0 73 3f 57 d3 84 3f
       0.94639724 0.99853444 0.9521538 1.0376996
000140 11 08 82 3f c6 d7 95 3f fb 57 6e 3f dd 77 75 3f
       1.0158712 1.1706474 0.93103 0.9588602
000150 ec 04 77 3f 69 02 4b 3f 2e ad 38 3f 37 7a 8e 3f
       0.96491885 0.7930055 0.7213925 1.1131047
000160 8f 0f 87 3f 2a d8 ca 3f 93 55 80 3f 24 c9 6d 3f
       1.0551623 1.5847218 1.0026115 0.9288504
000170 d0 09 72 3f 46 ff 87 3f dd 58 7a 3f c2 7f 8b 3f
       0.9454622 1.0624778 0.97791845 1.0898364
000180 38 00 42 3f 04 3b 93 3f e3 7b 82 3f e2 a1 77 3f
       0.75781584 1.1502385 1.0194057 0.9673139
000190 91 85 55 3f 8d 6b 9f 3f 5d f6 8a 3f 06 6b 80 3f
       0.8340693 1.2454697 1.0856434 1.0032661
0001a0 c2 48 6b 3f 82 69 80 3f 8b 3c 61 3f 04 33 7b 3f
       0.91907895 1.0032198 0.87983006 0.9812472
0001b0 c8 3c 99 3f 21 ba 4a 3f a5 fe 84 3f b7 50 5e 3f
       1.1971674 0.7919026 1.0390211 0.8684191
0001c0 d9 e6 88 3f 16 fe 88 3f 49 85 87 3f 05 a3 83 3f
       1.0695449 1.0702541 1.058755 1.0284125
0001d0 9b 0d 72 3f 53 38 6e 3f c7 a1 6c 3f 22 02 6b 3f
       0.9455201 0.93054694 0.9243435 0.9180013
0001e0 e7 c2 65 3f 2d 67 7c 3f 07 89 85 3f 17 6e 7c 3f
       0.8975052 0.98594934 1.0432442 0.98605484
0001f0 29 d7 88 3f 41 4c 82 3f 67 b9 89 3f 17 49 8c 3f
       1.0690662 1.0179521 1.0759705 1.0959805
000200 da a7 3b 3f 9b 7c 7f 3f 7f 89 86 3f f3 a0 88 3f
       0.73302996 0.9979951 1.051071 1.0674118
000210 76 61 75 3f 36 84 84 3f ca 64 80 3f 71 c3 74 3f
       0.9585184 1.0352848 1.0030758 0.9561072
000220 20 8d 7e 3f e1 d2 85 3f 26 5c 80 3f be 63 66 3f
       0.9943409 1.045498 1.0028121 0.89995944
000230 19 88 6d 3f e1 27 7f 3f 74 d5 81 3f cb 05 98 3f
       0.92785794 0.99670225 1.0143266 1.1876768
000240 09 3c 81 3f fd cc 6f 3f b2 42 50 3f 18 78 81 3f
       1.0096446 0.9367216 0.8135177 1.0114775
000250 0a 39 7f 3f c3 b6 57 3f 2a 83 81 3f da 57 7d 3f
       0.9969641 0.8426325 1.0118153 0.98962176
000260 64 e1 7b 3f c6 07 88 3f 0a e5 7e 3f 78 bf 43 3f
       0.98390794 1.0627372 0.99568236 0.76464033
000270 d1 68 95 3f c7 d7 75 3f 74 9d 80 3f 59 d0 58 3f
       1.1672612 0.96032375 1.0048051 0.84692913
000280 31 45 84 3f 40 3f 78 3f 69 a7 74 3f 06 2f 91 3f
       1.0333616 0.9697151 0.9556795 1.1342475
000290 5f cc 58 3f 1a 75 7f 3f 3d fe 75 3f ac e6 7f 3f
       0.84686846 0.9978806 0.9609106 0.9996135
0002a0 e8 f4 64 3f 98 0c 80 3f 77 de 8b 3f 3a 0d 5a 3f
       0.894362 1.0003843 1.0927266 0.8517643
0002b0 6e 91 73 3f 7b da 7d 3f 5a 08 85 3f 3d aa 78 3f
       0.95143783 0.991615 1.0393174 0.97134763
0002c0 86 fb 6d 3f e8 d2 89 3f 61 ec 7c 3f fb ff 86 3f
       0.9296192 1.0767488 0.98798186 1.0546869
0002d0 9c b9 65 3f e7 63 9b 3f ed 64 6e 3f 29 6b 64 3f
       0.8973634 1.2139863 0.9312275 0.89226013
0002e0 01 40 54 3f 7d c1 72 3f c6 5a 80 3f 6d e7 86 3f
       0.8291016 0.9482649 1.0027702 1.0539376
0002f0 20 78 9b 3f ed a9 85 3f f5 85 66 3f d2 f3 49 3f
       1.2146034 1.0442482 0.9004815 0.78887665
000300 24 4c 81 3f d4 70 6a 3f e2 75 71 3f 2d c2 6a 3f
       1.0101361 0.9157841 0.943205 0.9170254
000310 94 b6 54 3f f4 5d 21 3f f6 90 3c 3f ac 0b 84 3f
       0.8309109 0.63033986 0.7365869 1.0316062

encoder_loc.2.bias f4 [200]
000000 0b 1a 52 3d 0b a9 2f 3e ca 71 9e 3c 45 61 a6 be
       0.051294368 0.17154329 0.019341368 -0.32496086
000010 fb dc 1f bd 4d 9b 41 3b 9f fb 0c 3e ca 24 86 3d
       -0.039029103 0.002954203 0.13767861 0.06549986
000020 c6 2d 4e bd 9e 73 85 3e 4e 93 68 3e ca 21 71 3d
       -0.05033662 0.2606477 0.22712442 0.058870114
000030 d4 01 82 bd 8a 96 63 bd fc ce 47 be 2e 87 5b 3e
       -0.06348005 -0.055563487 -0.19512552 0.21438286
000040 d8 3f 28 bf 8a 2c 1a 3e f9 88 4b be 95 6a b5 3e
       -0.6572242 0.15056053 -0.1987647 0.35432878
000050 71 f7 07 be de ff d1 be bb e9 49 be 9a f2 92 be
       -0.13277985 -0.41015524 -0.19718067 -0.28700715
000060 94 52 b0 be 79 43 7f 3c be 84 e0 3d 8e 93 bc be
       -0.34438002 0.015580052 0.109628186 -0.36831325
000070 8d de 81 be 50 98 c3 3e d4 9a 94 be 29 71 70 be
       -0.25365105 0.38202143 -0.29024374 -0.23480667
000080 a4 8a 9a 3e 0d c9 ec be 00 5a 2c 3f 3e 0e 40 bd
       0.301839 -0.4624714 0.6732483 -0.046888582
000090 6e 7d 7e be b9 be 04 be 62 eb 35 be b7 1c 88 be
       -0.24852535 -0.1296338 -0.17765573 -0.26584408
0000a0 ad 2c 3a 3e 63 e9 2a bd 30 58 7d bd 1b 2b 87 bb
       0.18181105 -0.04172648 -0.06185168 -0.0041250116
0000b0 02 bf 31 be 6a c0 4b be 29 d8 75 bc fe dd 06 3e
       -0.1735802 -0.19897619 -0.01500515 0.13170621
0000c0 4a f5 9c be 63 c1 8b 3e 1d d4 71 be 76 db 7a be
       -0.3065589 0.2729598 -0.23616071 -0.2449778
0000d0 05 d6 76 3e 1b 7f 63 3d c8 92 f8 3b 80 36 67 bd
       0.2410508 0.05554114 0.007585857 -0.05644846
0000e0 e5 a4 0f 3e a9 f8 0d be 1b 0b e8 bd 03 3a 5f 3a
       0.14027746 -0.13864388 -0.11330243 0.00085154193
0000f0 f8 23 65 be 95 39 30 bf 4c 44 b6 be d9 2d 77 3e
       -0.22377002 -0.68837863 -0.3559898 0.24138583
000100 8d 7d c8 bd e7 66 ae bd 71 0a 9c bd 22 ed 1e be
       -0.09789572 -0.08515721 -0.07619179 -0.15520146
000110 11 da 0e 3e 29 e0 81 3e 5c 27 a2 3d ed be 8b be
       0.13950373 0.25366333 0.079176635 -0.27294102
000120 63 59 95 be 15 26 70 3d 5d 05 53 be 01 6d 23 3e
       -0.2916976 0.058630068 -0.20607515 0.1595955
000130 ac 84 21 be 36 0b bf bd 7f 12 73 3e 50 d4 ff 3d
       -0.15773267 -0.0932831 0.23737524 0.12491667
000140 27 28 e7 3d 85 dc 0b be f3 70 d9 bd 14 21 52 3e
       0.11286955 -0.1365834 -0.106172465 0.20520431
000150 c3 a6 15 3f 73 2c c2 3d 9e 0c ec 3e a6 b6 97 be
       0.58457583 0.09481134 0.46103376 -0.29631537
000160 57 3b 22 3e 34 a7 48 bf c1 76 d5 3d 20 ee b3 bd
       0.15842949 -0.7838013 0.10423041 -0.08785653
000170 7d 52 08 be ac f2 b0 bd 9f f7 05 be 29 14 b2 3d
       -0.13312717 -0.08640036 -0.13082741 0.086952515
000180 58 af 71 be ac 9a 97 3d 9c 09 9f be 49 5b ad 3d
       -0.23602045 0.07402548 -0.3106202 0.08464677
000190 17 17 59 3e 64 cc ae be ef b5 4d be ba 58 8e 3e
       0.21200214 -0.34140313 -0.20088933 0.27802068
0001a0 10 ff 8d bd 78 13 92 3b 5c f8 fe 3d 71 0d 70 be
       -0.06933415 0.0044578873 0.124497145 -0.23442627
0001b0 0e 9c 21 3d 84 1e a2 bd 9a e6 73 bc 29 06 9b bc
       0.039455466 -0.07915977 -0.014886523 -0.018923836
0001c0 b7 a0 ba bd 30 36 f6 bd 78 e1 13 3b 6c 82 23 3e
       -0.09112685 -0.12022054 0.002256481 0.15967721
0001d0 08 01 b0 3d fa 83 02 be 27 ba 6a be 02 bb c4 be
       0.08593947 -0.12745658 -0.22922574 -0.38423926
0001e0 75 a6 f5 be fb 19 e1 bd d5 c0 a6 bd 78 34 38 3e
       -0.4797856 -0.109912835 -0.081422485 0.17988765
0001f0 2f ff 8c 3d 90 79 99 3c 44 6e b4 3d 80 66 02 be
       0.0688461 0.018734723 0.08810094 -0.12734413
000200 ed 89 6a be 57 7c d9 bc 19 27 b2 be cb 43 0b bd
       -0.22904177 -0.026548548 -0.34795454 -0.0340002
000210 ae ec 42 bd fc 50 d6 bd de 47 59 be 9f 4f 0b 3e
       -0.047588997 -0.10464665 -0.21218821 0.13604592
000220 11 90 ce bd 2b 93 8c bd c6 34 27 3e e3 24 cf bd
       -0.10086072 -0.068640076 0.16328725 -0.101144575
000230 7c 83 7d 3c 54 a5 b3 be 80 92 4b be 84 96 92 be
       0.015473243 -0.35087073 -0.19880104 -0.2863046
000240 dc 5f 7d bd 3f 52 34 3f 74 21 9c be e8 cb 16 bf
       -0.061858997 0.70438 -0.30494273 -0.58904886
000250 f1 23 ab bd 97 89 ea bd 6a 11 88 3e d6 0f b9 3d
       -0.08356465 -0.114520244 0.26575786 0.090362236
000260 e9 fb 1d bc f0 80 83 bc b1 a4 1a 3e a0 a6 84 3e
       -0.00964258 -0.016052693 0.15101887 0.25908375
000270 63 5c 1d be 1e c3 e2 3a 81 2a 33 be 48 1c 05 be
       -0.15367274 0.0017300581 -0.17496683 -0.1299907
000280 95 ec f3 be 90 06 0f bf e0 ff fe be 1b 08 95 be
       -0.47641435 -0.5586939 -0.49804592 -0.29107746
000290 77 f8 e3 3d 51 e1 e6 bd ca 6d 39 ba 51 9b bf 3d
       0.11131375 -0.112734444 -0.000707355 0.09355796
0002a0 92 a2 80 3e 91 e3 18 bf 83 18 67 bd f7 76 91 bd
       0.2512403 -0.5972224 -0.05641986 -0.07102769
0002b0 ba 31 15 3e 28 75 b5 be c7 51 93 bd 29 bb 3a 3e
       0.1456975 -0.35440946 -0.07193332 0.18235458
0002c0 6a 8e 0f 3e 7b 89 2b bd 52 df de be 91 4a 2c bd
       0.1401917 -0.04187916 -0.43529755 -0.0420633
0002d0 1d 83 49 3d cc 90 76 3e 98 ce 04 3e 17 ba cd 3e
       0.049197305 0.24078673 0.12969434 0.40181038
0002e0 51 df b6 be b7 a5 3d bc cb 64 bd 3d 72 e9 46 3e
       -0.35717252 -0.011575154 0.0924774 0.1942499
0002f0 9c ad cc be 4a da c3 bd 07 a3 eb 3c de e0 43 bd
       -0.39976203 -0.0956312 0.028764261 -0.047821872
000300 e1 19 25 be a2 4c 52 bc c6 1f 9b be 40 e9 c7 bd
       -0.16123153 -0.0128356535 -0.3029768 -0.09761286
000310 a7 16 9a bd 85 a1 9f be 0a 36 e9 3d 89 75 1b bd
       -0.07523852 -0.31177917 0.1138726 -0.037953887
